…
ied Xception-based\nmodel,  including the global average pooling step\nand two dense layers for classification.  The final\nlayer in the table shows a 2-dimensional output,\ntypically used for binary classification (e.g., healthy\nvs. ulcer) or to represent two sub-classes of DFU.\n13\n\nHowever, in our actual experiments, we adapted the\noutput layer to handle multiple classes (infection,\nischaemia, none, or both) depending on the specific\nclassification scheme.\nTable 2: Layer Summary for the Modified Xception Network\n(example).\nLayer (type)  Output Shape  Param #\ninput 4 (InputLayer)  (None, 150, 150, 3)  0\nsequential (Sequential)  (None, 150, 150, 3)  0\nxception (Functional)  (None, 5, 5, 2048)  20,861,480\nglobal average pooling2d (GlobalAvgPool2D)  (None, 2048)  0\ndense 2 (Dense)  (None, 128)  262,272\ndense 3 (Dense)  (None, 2)  258\nTraining proceeds in two phases:\n1. Feature Extraction Phase: We freeze the\nXception layers and train only the final dense\nlayers, allowing the network to adapt to DFU\ndata while preserving  the  general  features\nlearned from ImageNet.\n2."
  },
  {
    "id": "casestudiesandexperimentalresults3",
    "metadata": {
      "lang": "en",
      "section_title": "Case Studies and Experimental Results",
…
