…
models, however, require a lot of denoising steps\nIn our study, we note that preambles have predetermined wa\nimplement complex algorithms such as diffusion-based cle\npreambles to filter out adversarial perturbations and 2) i\nadversarial perturbations. Our autoencoder is intentionally\nimplementation.\n4\n\nA PREPRINT - MAY 20, 2025\nnts."
  },
  {
    "id": "methods2",
    "metadata": {
      "lang": "en",
      "section_title": "Methods",
      "page_start": 3,
      "page_end": 4
    },
    "text": "This architecture is inspired by the model used in the\nOutput Shape  Param #\n[-1, 16, 2, 256]  32\n[-1, 16, 2, 256]  –\n[-1, 16, 2, 256]  1,552\n[-1, 16, 2, 256]  32\n[-1, 16, 2, 256]  –\n[-1, 16, 2, 256]  1,552\n[-1, 16, 2, 256]  32\n[-1, 16, 2, 256]  –\n[-1, 16, 2, 256]  1,552\n[-1, 16, 2, 128]  –\n–\n[-1, 32, 2, 128]  544\n[-1, 32, 2, 128]  –\n[-1, 32, 2, 128]  6,176\n[-1, 32, 2, 128]  64\n[-1, 32, 2, 128]  –\n[-1, 32, 2, 128]  6,176\n[-1, 32, 2, 128]  64\n[-1, 32, 2, 128]  –\n[-1, 32, 2, 128]  6,176\n[-1, 32, 1, 42]\n134,500\nl and perturbed input at epoch t, α denotes the amplitude\nenotes model parameters, sign denotes the sign function,\nnction, which restrains the amplitude of perturbation in this\ntoolbox, to craft 500 adversarial inputs (preambles) using\nL models robust to adversarial perturbations. The first line\nincorporates adversarial examples with training sets. The\nch DL model
…
